pytorch/saveNets/net_params.pkl (torch, 1631 bytes, 3 tensors)

0.weight f4 [10, 1]
0	0xbf4f4933	-0.8097107
1	0xbe463008	-0.1935426
2	0x3ee38794	0.44439375
3	0x3fa264fc	1.2687068
4	0xbe062fde	-0.13104197
5	0xbf0d5607	-0.5520939
6	0xbf8582d8	-1.0430555
7	0xbe975630	-0.29557943
8	0xbf45558a	-0.7708365
9	0xbf55ccae	-0.8351544

0.bias f4 [10]
0	0x3ed8ddf1	0.42356828
1	0xbf07fa96	-0.5311674
2	0x3f2f7b73	0.68547744
3	0x3ddca93c	0.107744664
4	0x3f536299	0.82572323
5	0xbe6cbe9f	-0.23119591
6	0x3e68cbab	0.22733943
7	0xbf128cbc	-0.57245994
8	0xbf65b3ca	-0.8972746
9	0x3f5a28f6	0.8521875

2.weight f4 [1, 10]
0	0x3e4f37af	0.20236085
1	0xbdf7fbac	-0.121085495
2	0xbe31c19e	-0.17359015
3	0x3f557714	0.83384824
4	0x3d8c26e7	0.068433575
5	0x3ea5963a	0.32341176
6	0x3f56c7ea	0.83898795
7	0x3d9c30bc	0.07626483
8	0x3e80433b	0.25051293
9	0xbe917bf2	-0.28414875
